save_models/gen280/w1.npy (npy, 3728 bytes, 1 tensors)

array f8 [15, 30]
0.10629350951461158 -0.07269509296654153 -0.12805764528210695 -0.05412919002500338 1.8435602958749815 1.8441799160223709 -0.38307273894383487 0.14726442239131243
-1.858534950467683 0.5526740154688392 -0.9099567000253613 0.7181098014173708 -0.15523930500057626 -0.32171957378035954 3.0656885063974424 1.3521647170863207
1.5596225942743236 0.05655257719123874 1.271345448854967 -1.6493277627621348 0.5340362133024428 -1.7629423899450867 -1.7472328614447985 -1.6338571244354743
-1.1759945602727147 1.1806308451276384 1.0297657451032207 0.4492790968212359 -0.8803641895817433 -1.7817356112265665 -0.1328401961625434 1.303210106392695
-1.7041177006731636 0.9541814684183221 -0.10919896431660181 0.5585137814035984 1.4735951948488695 1.7951481718863767 0.9134343523063935 0.07222278025146789
-1.9313339937188028 1.2305115979041479 1.2980128172775682 -1.1485982506353767 -1.2507076930792542 -2.8289477715549047 -0.3217229855879684 -1.6007494103805846
1.9438524804776507 -0.6085560919820211 -0.5190525502956267 0.5856264266510163 1.6361020789245235 -0.8574539695001859 0.28515239336447973 1.9659836119474412
-0.6612299122405667 1.784071864559325 1.1924281965318713 -0.03864390827195518 1.1005384695884657 -1.6859247439072909 0.7655581430475387 0.9166042320322707
-1.8791353083754716 0.9191600760689633 -0.4827758400586422 -1.4592795974768178 1.8268889028331667 0.7629618468076362 -0.6880847865277082 0.1785538503373605
0.7386243507450638 -0.5717673520131479 -0.6364863326049237 -1.0750680221204658 1.7784956018074718 1.4533680015407149 -0.5965191845307971 1.1099327506456658
-1.0338849141750273 0.315164984567851 1.2049015818348487 0.04082779400689467 1.2949127807916216 1.8976500595839259 -1.2993596086893158 0.5261034633195766
1.3716909069686878 1.1804102348797314 -1.2098168096799204 -0.30320822009022774 0.4019806263346779 -0.14781113523728573 1.1206098404497085 -0.0854932614679953
0.9768818282206202 0.0027703296097930197 -0.6609101023950412 -0.007778527996179484 1.0585684689210864 -1.5347237233882323 0.9284512187434144 -1.3345439562822525
-0.03280998016609926 1.0676361070573397 -1.4964936378013434 -1.8554556891162037 0.1192952284633706 -1.4098129428454462 -1.485832286777379 0.6882555563187013
1.2703154794546938 -1.9911230633647667 -0.0729200951362432 0.3075146690469528 -1.0318647170213036 0.5196079231479924 0.6243210286656842 1.8388104733031314
-2.313740435120667 -1.5240703300827239 0.9849028860108056 -0.14410502200329656 1.8920372657090936 -1.5741936317651155 0.7172832658019646 0.09648064826959768
0.20486643381760536 0.46313227885427555 -1.775101585678187 -1.8879373354637852 -1.568852082305622 0.3148159124857872 -1.4326965590371215 -0.09201974265937274
0.43264799211492677 -1.2826793444049627 1.658219973436729 0.775248428632096 -1.7371598481973556 1.993858490430692 -1.3390192300699435 0.1150224386976677
-1.3572060344576733 0.01177620776742162 -1.6309512881926205 0.2577195066007998 0.0701877889056246 -1.2873436068725153 -0.10594994306709316 -1.8901930006228667
0.1829538286720207 1.4170806603193666 1.3332641088627746 1.6530083862176106 -1.4651483060144277 -0.32514401430074136 -1.015623201679126 -1.1535874998275717
1.4153984749216484 -1.0434925803900126 -0.724785731916036 -0.017042413723641927 -1.1061514410170896 0.23729911592260677 0.9449198345226262 -1.228229027323688
1.216425209914584 -0.6186565132080637 1.8663263703753876 -1.4791020661697791 -1.692930558418185 -0.007627336246468924 0.39191288528390755 -1.0650506017836734
0.4253938375198887 -0.16585523713185035 -1.9559250233077616 -1.0015641961249533 2.8515129652718807 0.2826732680844516 1.2646116416195876 -0.48992477273041324
1.2289736960183633 1.3549023223680252 0.8229354925091168 0.25293017023146547 0.2700535707499892 1.649681610291632 1.1387668371909756 0.15394477469244228
0.26263449255725835 1.9879680755943472 -0.5719712792735563 1.7170453785185296 1.2442986057088876 -0.6097393924297654 -0.6180500287088653 0.9493664229393923
0.7383276655558464 -1.6531431548513758 -1.8435259572608467 -1.1575229266964726 0.18714496998587915 0.8058566718585376 -1.3685240273490193 2.171821513178303
-1.339529335550461 -0.8288407413330083 -0.4727795259924661 0.4998409500340477 0.2262330786965494 1.7790834680402186 -0.8761207003034182 -0.09783788828680307
-1.8585011683027854 1.6008323306266492 -0.5739321885301365 0.014629797157614182 -1.6457205954272318 -1.4508315181795588 0.044391594456807404 1.6931526192524915
-1.0990770567270784 -0.3790425145818994 -0.9658375519984439 1.6188922477175227 -1.6737682972477983 0.38066583200072346 0.2618841612061522 0.7740934458927646
1.9856414502116109 -0.7986670312805626 -0.6563466402994437 0.33932162084347484 0.4957059339916969 -1.6302357633581646 -0.06731169939511707 -0.4122447497184587
0.7592874254107609 -0.14854256548237554 0.6966132888405734 0.7217588279999658 -0.9532839828159725 -0.994716019955161 0.18335544123787884 -0.7220400771258046
-1.4228793858937125 0.5883173038392622 0.2659729477101198 1.088551013411775 -0.15958050781900585 0.01217569818795649 0.042430490598446724 0.39427224029627345
00000000: 306f 242b 0d36 bb3f 40f8 de46 259c b2bf
00000010: 40a5 3e63 3164 c0bf 002d d539 d2b6 abbf
00000020: 48cb af14 397f fd3f 0619 b4cc c281 fd3f
00000030: c82f 7085 4384 d8bf 707b 0483 8fd9 c23f
00000040: f4b4 eb24 8fbc fdbf 8834 b96a 81af e13f
00000050: ff51 6c83 5d1e edbf 08ca 0068 c1fa e63f
00000060: d0ff 03ad e1de c3bf 38a9 f7b1 0d97 d4bf
00000070: cf99 15b2 8786 0840 ae0d 6b78 77a2 f53f
00000080: a22c 48d2 36f4 f83f 00ef 149b 75f4 ac3f
00000090: 2502 4c53 6e57 f43f e42b 1782 a563 fabf
000000a0: 0070 e01c d316 e13f 58bd 5814 0335 fcbf
000000b0: 386e e671 aaf4 fbbf 6897 3c5e 4724 fabf
000000c0: c852 0aac dfd0 f2bf 828d 472b dde3 f23f
000000d0: 8626 5ca5 eb79 f03f 7ce9 e71c fdc0 dc3f
000000e0: 1857 5a85 f12b ecbf 0463 4533 fd81 fcbf
000000f0: 7061 0e55 e800 c1bf 765f 2cd7 f2d9 f43f
00000100: b6d0 0eec 1044 fbbf 58ca 2993 a788 ee3f
00000110: 4033 7f9c 76f4 bbbf c9cc 2f4b 58df e13f
00000120: c2b2 168e d893 f73f 699e 1b4a edb8 fc3f
00000130: 685d c6ad da3a ed3f c0cc 342f 317d b23f
00000140: 24ce 4a79 bee6 febf 628d e5ed 2cb0 f33f
00000150: 88ef 7f16 a9c4 f43f 4e8c 2b8f a860 f2bf
00000160: 9618 ea11 e602 f4bf f85c 875e afa1 06c0
00000170: 0832 5e01 1c97 d4bf 76d0 ea69 ab9c f9bf
00000180: 5a66 fe0e 051a ff3f e704 1ba0 4a79 e3bf
00000190: 849a 0d18 149c e0bf 7076 c4a1 73bd e23f
000001a0: 0260 9e5f 792d fa3f 8c84 9a4e 4370 ebbf
000001b0: b019 f8d2 ef3f d23f 5694 5c3b ab74 ff3f
000001c0: d4b9 06a2 cb28 e5bf caef 7ff0 8e8b fc3f
000001d0: 20ec ae96 2f14 f33f 9f72 6f64 22c9 a3bf
000001e0: 26f5 ed39 ce9b f13f 7695 6939 8cf9 fabf
000001f0: e06b 72ca 737f e83f 8485 fe65 d254 ed3f
00000200: 54b4 632f f010 febf 8829 5064 c269 ed3f
00000210: 6d73 16a3 cce5 debf ac20 2e90 3559 f7bf
00000220: 1880 b1db ef3a fd3f 504e 84f6 2e6a e83f
00000230: 6c5f e062 ca04 e6bf 400d e341 dada c63f
00000240: 4856 cf88 cfa2 e73f c824 ba0b eb4b e2bf
00000250: b873 dc95 185e e4bf 92b9 bf86 7a33 f1bf
00000260: a47c ddcd b774 fc3f 56b9 3ace fe40 f73f
00000270: 34e2 9f66 af16 e3bf f284 0cd8 48c2 f13f
00000280: 265a 63e8 ca8a f0bf 880c 64c1 a92b d43f
00000290: ca11 8ee1 4647 f33f 470c 0e70 61e7 a43f
000002a0: 48c2 ca76 f6b7 f43f 88a5 124f c65c fe3f
000002b0: 0406 114d 2dca f4bf 29a3 28ee d6d5 e03f
000002c0: e06a 1a2a 72f2 f53f 06c1 aad7 f5e2 f23f
000002d0: fc9e fbde 685b f3bf 149e 4a73 c367 d3bf
000002e0: 18ea eef2 0cba d93f 5015 eaab 79eb c2bf
000002f0: 9aea 8495 04ee f13f 008e 08ea e2e2 b5bf
00000300: c474 08ae 9d42 ef3f 97aa 5762 cdb1 663f
00000310: 303f 6cf1 2c26 e5bf e57c acb5 60dc 7fbf
00000320: 597c a97d e5ef f03f 9f90 8576 3a8e f8bf
00000330: d8e5 8d54 dfb5 ed3f 5ce8 74c3 4a5a f5bf
00000340: c073 973f 78cc a0bf c270 3d99 0915 f13f
00000350: 2076 1050 a3f1 f7bf 5ae6 fe4d f2af fdbf
00000360: a0ab d1d0 218a be3f b6fa 2f04 988e f6bf
00000370: b8cb 7013 f8c5 f7bf 41bb 3584 3006 e63f
00000380: 7cc4 fd52 3653 f43f 7c68 77db a3db ffbf
00000390: e0d4 d42f e4aa b2bf 0834 a601 52ae d33f
000003a0: 710b d893 8482 f0bf 3038 95cb a0a0 e03f
000003b0: c85f 0a18 70fa e33f 5411 e687 c46b fd3f
000003c0: 6735 6258 8a82 02c0 c825 0892 9762 f8bf
000003d0: ace0 a40e 5384 ef3f 3cc5 588a 0872 c2bf
000003e0: 868a 30de c845 fe3f ce0a 60a9 e52f f9bf
000003f0: e8cc 1209 fcf3 e63f 00ca 03ad f4b2 b83f
00000400: cfba a534 1039 ca3f 10ab d991 f5a3 dd3f
00000410: 840c 99eb d066 fcbf ee6d 8bc7 fd34 febf
00000420: f239 1ca4 041a f9bf 38c2 18a4 f125 d43f
00000430: ac7f 223a 53ec f6bf 80ef 4e19 9b8e b7bf
00000440: 4613 3434 81b0 db3f a695 b7c6 da85 f4bf
00000450: 7ec1 b7aa 1188 fa3f fc01 e8ca d5ce e83f
00000460: 56e9 fe1f 68cb fbbf 2c07 1429 d8e6 ff3f
00000470: 1ed9 9d6d 9f6c f5bf e03c 834c 1c72 bd3f
00000480: 76df beac 1db7 f5bf c616 dbd9 1f1e 883f
00000490: 8480 c260 6018 fabf 7811 19f5 797e d03f
000004a0: 209f edb1 d3f7 b13f d2b6 239c f598 f4bf
000004b0: 6079 7c14 891f bbbf 66da 0c04 3b3e febf
000004c0: 3083 69f3 076b c73f 2cda 3dc5 5cac f63f
000004d0: 70f0 07bf 0c55 f53f 1018 edeb b872 fa3f
000004e0: c2f2 a159 3f71 f7bf 985b fad6 28cf d4bf
000004f0: 9e54 441d fe3f f0bf 5a57 8d2a 1875 f2bf
00000500: 508c 09df 78a5 f63f d24c a646 25b2 f0bf
00000510: 40fa e5d8 7131 e7bf e70d 5a06 9173 91bf
00000520: 7e77 79da cbb2 f1bf 80ef 2043 d15f ce3f
00000530: a4b9 5385 c83c ee3f 6ca6 057b d3a6 f3bf
00000540: 26cf e947 7a76 f33f ecf3 75be 08cc e3bf
00000550: 76cb 460a 79dc fd3f dc52 9aed 66aa f7bf
00000560: c8e1 6c5a 3e16 fbbf ec32 bf7b d73d 7fbf
00000570: 7839 4bc8 1915 d93f 9aef f37f 720a f1bf
00000580: d057 0413 a739 db3f f401 ad91 be3a c5bf
00000590: d88e 8809 784b ffbf 2238 b32d 6806 f0bf
000005a0: a2b3 8f07 e6cf 0640 0213 789e 5117 d23f
000005b0: 1e5a ae6a d93b f43f a026 186f ed5a dfbf
000005c0: 9ab0 8052 e0a9 f33f 9a85 bd0e aead f53f
000005d0: fc6a 61d0 7c55 ea3f 0037 5406 0230 d03f
000005e0: ad82 a2c5 8e48 d13f 2a3e 508b 1865 fa3f
000005f0: d412 3893 6338 f23f 30d9 585e 76b4 c33f
00000600: 5070 15e7 00cf d03f 68b7 e29c b7ce ff3f
00000610: 0c66 57b6 964d e2bf aac2 2793 0479 fb3f
00000620: 2ea6 9fa7 a5e8 f33f 3833 b22f fc82 e3bf
00000630: 0416 93da 10c7 e3bf 083f 4eb1 3561 ee3f
00000640: 9c6b 2957 61a0 e73f 3616 9b3c 4673 fabf
00000650: ea32 fc12 157f fdbf 4081 a8c2 3685 f2bf
00000660: e0a1 d9ca 5df4 c73f 94aa 5cee 93c9 e93f
00000670: 6611 5473 79e5 f5bf e4cc 1ef5 e35f 0140
00000680: a88c 0350 b66e f5bf ecc3 b304 dd85 eabf
00000690: 18c9 960e 0542 debf 7042 66e5 64fd df3f
000006a0: a035 239d 34f5 cc3f 5a64 013a 2077 fc3f
000006b0: 88db 6447 2e09 ecbf a863 8062 e70b b9bf
000006c0: 1803 97b8 6bbc fdbf 14bc a65c 029d f93f
000006d0: 007a 7b09 a75d e2bf 9668 b622 3af6 8d3f
000006e0: f06a 7b1e df54 fabf 5065 291c 9b36 f7bf
000006f0: 808d d1bc 7eba a63f 1438 6d33 2717 fb3f
00000700: ecd3 e6d2 d195 f1bf 2810 fb88 3b42 d8bf
00000710: e09f 6227 24e8 eebf 741d bb8e fbe6 f93f
00000720: a62c 1c44 c1c7 fabf 8874 c938 d45c d83f
00000730: d821 eec8 b5c2 d03f 2c09 459e 5fc5 e83f
00000740: a6da 23f8 2fc5 ff3f 24ca 7729 ae8e e9bf
00000750: 679e 5dab ca00 e5bf c84c 1608 72b7 d53f
00000760: b75b bb61 a5b9 df3f 5e49 8618 7215 fabf
00000770: 414b 8aeb 563b b1bf 5843 7fcd 3762 dabf
00000780: 7ce7 8c24 154c e83f 60c6 675a 7103 c3bf
00000790: bcef b0f3 a74a e63f 187e 3bf8 a518 e73f
000007a0: e8d8 3f69 4d81 eebf 6c78 d0b0 b6d4 efbf
000007b0: 0086 d4eb 3078 c73f 4403 b5ca f31a e7bf
000007c0: 940e c92c 1dc4 f6bf 0823 75cf 7ed3 e23f
000007d0: a048 0266 b305 d13f 8619 aa77 b46a f13f
000007e0: aab2 1453 226d c4bf 3c98 2f8c 92ef 883f
000007f0: 0077 f202 73b9 a53f efc2 72a2 c13b d93f
