save_models/gen280/w2.npy (npy, 1088 bytes, 1 tensors)

array f8 [30, 4]
000000 78 8a 77 6f 77 89 f9 3f 1c 1d 3f ff 94 ab eb bf
       1.5960611681154244 -0.8646950707706398
000010 ae 4a 88 73 c0 cc f9 bf 2a 8f 8d 33 1f 9a fb bf
       -1.6124882233604398 -1.7251274122035718
000020 ae 48 a0 30 6e 65 d7 bf 22 0e 00 e6 af 17 f8 3f
       -0.3655658221115442 1.505782984197943
000030 d4 11 bd b4 08 9d e4 bf f8 b4 70 91 16 df e7 3f
       -0.6441691904115552 0.7459824410085778
000040 1c a1 15 98 6d b3 f6 bf 00 e8 ac d9 d4 28 a6 3f
       -1.4188056889343619 0.04328026921434969
000050 a2 fd 34 32 df 26 f7 3f 7e 32 21 0a cc 1e fa 3f
       1.4469902001581905 1.6325188060465332
000060 f4 a3 09 33 14 ce f4 bf 00 0a 16 58 c7 33 e8 3f
       -1.3003122323664202 0.7563206406051108
000070 c4 fc 82 e5 8b f6 f0 bf b6 59 b3 d4 78 46 f3 3f
       -1.0601920094775759 1.2047050770394043
000080 3c e1 e6 e5 e3 1b 00 40 6c cb 41 84 b7 31 e8 bf
       2.0136182747920923 -0.7560689528603297
000090 b0 9b 00 a3 58 a1 fa 3f 9a 25 cb f7 fb df fc 3f
       1.6643911711960122 1.8046836547312979
0000a0 2a 3f c5 2f 36 2d f8 3f 26 39 0c 35 2a b5 f7 bf
       1.5110380044970477 -1.4817297050645464
0000b0 50 df 11 d8 a5 c7 db bf 44 86 1b d2 4c 0c fd bf
       -0.434060536389997 -1.8155029494595434
0000c0 96 a4 4e f3 96 bb cd 3f c8 90 0b 56 12 fe e5 bf
       0.23228728180155106 -0.687264602715481
0000d0 8f c2 4d b0 3d 5e ed 3f c4 b4 26 a0 35 cb ea 3f
       0.9177540248329751 0.8373058441117327
0000e0 60 1f 1e e0 e5 ed f4 bf c2 28 3b cd 2a 7d ff 3f
       -1.3080805544468248 1.96805839699168
0000f0 50 ee 31 2a ad 4f d7 bf fe 84 16 f2 2f 02 fc 3f
       -0.3642380630551303 1.7505340057908252
000100 a8 4a 54 ef 02 6c e7 bf aa 40 94 77 9a 4a fc bf
       -0.7319349932098094 -1.7682137175616313
000110 10 5d a5 59 07 bf e9 bf 60 63 f0 60 7d 67 dd 3f
       -0.8045689345262037 0.459441513697632
000120 64 60 c1 51 93 14 ef bf 38 6d 3c 88 a4 e0 e8 bf
       -0.9712616535935124 -0.7774222050533472
000130 b0 5d dc 38 49 fc d0 3f 00 20 4c 31 85 76 63 3f
       0.2653983168870253 0.002375850812658342
000140 0c a3 f5 73 60 03 fb 3f 0a 56 5f 6b c0 5a f5 3f
       1.6883244065922467 1.3346561617121346
000150 b4 d7 c7 b3 51 76 e5 3f 3c 54 01 f9 9c bf f1 3f
       0.6706932555523424 1.1092805601849838
000160 b2 fa 30 e1 d7 c5 fd bf fc ee cb 6c 01 83 fa 3f
       -1.8608015820060868 1.6569837808482921
000170 50 18 5c a1 94 25 da bf ae c3 6b d5 ed 79 fc bf
       -0.4085437370089311 -1.7797678314929999
000180 08 08 dc e2 db ca da bf d8 49 cf 07 cc 24 fc bf
       -0.4186315265106946 -1.758983641154023
000190 f0 3d 02 8d f3 d8 fc bf 03 0d 19 32 aa 31 fd 3f
       -1.8029666431574434 1.8246252018878415
0001a0 0c f2 c7 d3 b9 29 fd 3f 1a 8c 17 75 f5 a6 f0 3f
       1.822686984319378 1.0407614301591424
0001b0 1c b3 2e 8d fc 74 ef 3f ec 1e 38 08 20 5f f2 3f
       0.9830305821866179 1.1482239075721123
0001c0 18 c2 14 c8 22 5a df bf 10 1f 39 b2 f0 ed fa 3f
       -0.4898764566342222 1.6830908738938355
0001d0 b4 95 48 c9 cf 83 ee bf 80 2f b5 e5 5a 61 ad bf
       -0.9535902911490468 -0.05738338522004849
0001e0 db f7 ac 9c 00 92 f7 3f fc 59 05 64 82 bc e2 bf
       1.473145114912305 -0.5855113938840186
0001f0 0c 9f b7 59 b1 9c e4 3f 3c f8 8a 88 c9 5c e4 3f
       0.6441275360384409 0.6363265673496765
000200 50 4a 59 0b a1 a9 f4 3f de e0 11 d8 de df f7 bf
       1.2914133494674793 -1.4921558799961114
000210 8c b2 dd ab 39 7a e6 bf 04 fd 13 3d 80 d6 e2 3f
       -0.7024200779683993 0.5886841957980384
000220 10 c4 20 1c 95 85 fa 3f 30 93 5d 58 84 da da 3f
       1.657612905383079 0.41958721761175166
000230 3c 4f 0f 53 e9 1a f5 3f 16 83 66 15 dc 6e fe 3f
       1.3190701717876 1.9020653568224524
000240 57 2f ce fb 09 8c d8 bf ee 3b 88 6d b9 f3 bd 3f
       -0.3835473021542745 0.1170001881039153
000250 c2 58 d0 3e c3 ea d7 3f 7e fd 8c 12 67 43 f9 bf
       0.37370377668538535 -1.5789557194364927
000260 42 4f 86 fb 54 96 f4 3f b2 c3 b8 64 fa 27 f5 bf
       1.286702139394905 -1.3222602781718078
000270 ff c3 7f 5a 09 d0 f4 3f b8 d9 04 f2 0a 36 e5 3f
       1.3007901702042088 0.6628470160419999
000280 c0 0c bf fd 19 61 c6 bf 10 d9 16 33 27 86 fe 3f
       -0.17483830347018703 1.9077522273706258
000290 98 8c 3f a7 21 65 e1 3f 00 ac aa cb 37 85 ce 3f
       0.5435951487128419 0.23844048924124195
0002a0 68 71 50 67 18 c0 e1 bf 9f 44 9c 1c 26 12 e5 bf
       -0.554699136529547 -0.6584654387280756
0002b0 38 26 b4 37 51 2d a6 3f d4 e3 32 81 df 49 fa 3f
       0.04331449322678477 1.6430354163005534
0002c0 64 e7 57 f0 c9 c4 e1 bf 86 ca 0e b0 28 84 f0 3f
       -0.5552720731932195 1.0322653653389877
0002d0 07 79 26 d8 67 54 f6 bf 1e 3f ae 55 bd c5 f1 3f
       -1.3956068461771467 1.1107762667560972
0002e0 28 f1 c8 c2 34 e5 e9 3f 66 c5 31 8a c2 81 fa bf
       0.8092292599099311 -1.6566796682567086
0002f0 c0 b9 15 4c 69 3f d3 3f 20 a9 67 34 02 18 ec 3f
       0.30074531965410856 0.8779307387860946
000300 3d 65 14 74 9a f5 00 40 b3 3b 51 3a 7d df e3 bf
       2.1199235028003884 -0.6210313929567434
000310 56 2f c5 5c 3f 12 f3 3f 5c 9c 43 3f 75 e7 f5 3f
       1.191954958328059 1.3690082999471747
000320 7e 88 6e 8c 81 49 f3 bf c8 8e 3d 0a 85 4d e5 bf
       -1.2054458127609275 -0.665712852478884
000330 e5 8b 8f a2 27 91 f2 3f ba c1 75 12 44 76 ff 3f
       1.1604381895092442 1.9663735123723272
000340 60 77 cd 4d fb b4 f7 bf 2c a6 c9 ea b6 e9 f5 3f
       -1.4816849745906993 1.3695592090028965
000350 80 c2 7e ab 64 f5 9e bf 74 36 a6 d6 fd 95 f6 bf
       -0.03023297592852936 -1.4116190323578879
000360 94 de ef d6 fb 40 f2 3f 88 ac 62 e3 66 51 de bf
       1.1408651729561017 -0.47371837812051654
000370 20 18 32 fa 49 b7 f3 3f 64 b2 f5 0f 5b bf ff bf
       1.2322482846516394 -1.984217703192507
000380 a6 e1 3a 47 b5 b1 f2 bf d0 30 ee d3 11 ee c8 3f
       -1.1683857710287184 0.1947653088394703
000390 fe 4d 37 23 4c 3e f6 3f b0 18 54 d6 55 9b f0 bf
       1.390209329187996 -1.0379236576277826
0003a0 18 ab 88 03 13 83 ee 3f 56 9c a2 dc 3b 27 fd bf
       0.9535002774258343 -1.8220785730898306
0003b0 7c 0e c7 81 1f 3d eb bf 60 2b 66 42 52 43 b0 3f
       -0.8512113127439558 0.06352724190780412
